I1206 18:07:33.251577 18765 caffe.cpp:347] Use CPU.
I1206 18:07:33.274395 18765 net.cpp:58] Initializing net from parameters: 
state {
  phase: TRAIN
  level: 0
  stage: ""
}
layer {
  name: "DummyData1"
  type: "DummyData"
  top: "DummyData1"
  dummy_data_param {
    data_filler {
      type: "gaussian"
      mean: 0
      std: 1
    }
    shape {
      dim: 1
      dim: 16
      dim: 1152
      dim: 1152
    }
  }
}
layer {
  name: "Convolution1"
  type: "Convolution"
  bottom: "DummyData1"
  top: "Convolution1"
  convolution_param {
    num_output: 64
    pad: 2
    kernel_size: 5
    group: 1
    stride: 2
    weight_filler {
      type: "msra"
    }
  }
}
layer {
  name: "ReLU1"
  type: "ReLU"
  bottom: "Convolution1"
  top: "Convolution1"
}
layer {
  name: "Convolution2"
  type: "Convolution"
  bottom: "Convolution1"
  top: "Convolution2"
  convolution_param {
    num_output: 128
    pad: 2
    kernel_size: 5
    group: 1
    stride: 2
    weight_filler {
      type: "msra"
    }
  }
}
layer {
  name: "ReLU2"
  type: "ReLU"
  bottom: "Convolution2"
  top: "Convolution2"
}
layer {
  name: "Convolution3"
  type: "Convolution"
  bottom: "Convolution2"
  top: "Convolution3"
  convolution_param {
    num_output: 256
    pad: 2
    kernel_size: 5
    group: 1
    stride: 2
    weight_filler {
      type: "msra"
    }
  }
}
layer {
  name: "ReLU3"
  type: "ReLU"
  bottom: "Convolution3"
  top: "Convolution3"
}
layer {
  name: "Convolution4"
  type: "Convolution"
  bottom: "Convolution3"
  top: "Convolution4"
  convolution_param {
    num_output: 384
    pad: 2
    kernel_size: 5
    group: 1
    stride: 2
    weight_filler {
      type: "msra"
    }
  }
}
layer {
  name: "ReLU4"
  type: "ReLU"
  bottom: "Convolution4"
  top: "Convolution4"
}
layer {
  name: "Convolution5"
  type: "Convolution"
  bottom: "Convolution4"
  top: "Convolution5"
  convolution_param {
    num_output: 512
    pad: 2
    kernel_size: 5
    group: 1
    stride: 2
    weight_filler {
      type: "msra"
    }
  }
}
layer {
  name: "ReLU5"
  type: "ReLU"
  bottom: "Convolution5"
  top: "Convolution5"
}
layer {
  name: "Convolution6"
  type: "Convolution"
  bottom: "Convolution5"
  top: "Convolution6"
  convolution_param {
    num_output: 640
    pad: 2
    kernel_size: 5
    group: 1
    stride: 2
    weight_filler {
      type: "msra"
    }
  }
}
layer {
  name: "ReLU6"
  type: "ReLU"
  bottom: "Convolution6"
  top: "Convolution6"
}
layer {
  name: "Convolution7"
  type: "Convolution"
  bottom: "Convolution6"
  top: "Convolution7"
  convolution_param {
    num_output: 4
    pad: 1
    kernel_size: 3
    group: 1
    stride: 1
    weight_filler {
      type: "msra"
    }
  }
}
layer {
  name: "ReLU7"
  type: "ReLU"
  bottom: "Convolution7"
  top: "Convolution7"
}
layer {
  name: "Convolution8"
  type: "Convolution"
  bottom: "Convolution6"
  top: "Convolution8"
  convolution_param {
    num_output: 4
    pad: 1
    kernel_size: 3
    stride: 1
  }
}
layer {
  name: "Sigmoid1"
  type: "Sigmoid"
  bottom: "Convolution8"
  top: "Sigmoid1"
}
layer {
  name: "Convolution9"
  type: "Convolution"
  bottom: "Convolution6"
  top: "Convolution9"
  convolution_param {
    num_output: 2
    pad: 1
    kernel_size: 3
    stride: 1
  }
}
layer {
  name: "Sigmoid2"
  type: "Sigmoid"
  bottom: "Convolution9"
  top: "Sigmoid2"
}
layer {
  name: "Concat1"
  type: "Concat"
  bottom: "Convolution7"
  bottom: "Sigmoid1"
  bottom: "Sigmoid2"
  top: "Concat1"
}
layer {
  name: "DummyData2"
  type: "DummyData"
  top: "DummyData2"
  dummy_data_param {
    data_filler {
      type: "gaussian"
      mean: 0
      std: 1
    }
    shape {
      dim: 1
      dim: 4
      dim: 18
      dim: 18
    }
  }
}
layer {
  name: "DummyData3"
  type: "DummyData"
  top: "DummyData3"
  dummy_data_param {
    data_filler {
      type: "gaussian"
      mean: 0
      std: 1
    }
    shape {
      dim: 1
      dim: 4
      dim: 18
      dim: 18
    }
  }
}
layer {
  name: "DummyData4"
  type: "DummyData"
  top: "DummyData4"
  dummy_data_param {
    data_filler {
      type: "gaussian"
      mean: 0
      std: 1
    }
    shape {
      dim: 1
      dim: 2
      dim: 18
      dim: 18
    }
  }
}
layer {
  name: "Concat2"
  type: "Concat"
  bottom: "DummyData2"
  bottom: "DummyData3"
  bottom: "DummyData4"
  top: "Concat2"
}
layer {
  name: "EuclideanLoss1"
  type: "EuclideanLoss"
  bottom: "Concat1"
  bottom: "Concat2"
  top: "EuclideanLoss1"
}
layer {
  name: "Deconvolution1"
  type: "Deconvolution"
  bottom: "Convolution6"
  top: "Deconvolution1"
  convolution_param {
    num_output: 512
    bias_term: false
    pad: 0
    kernel_size: 5
    group: 1
    stride: 2
  }
}
layer {
  name: "ReLU8"
  type: "ReLU"
  bottom: "Deconvolution1"
  top: "Deconvolution1"
}
layer {
  name: "Crop1"
  type: "Crop"
  bottom: "Deconvolution1"
  bottom: "Convolution5"
  top: "Crop1"
  crop_param {
    axis: 2
    offset: 1
  }
}
layer {
  name: "Deconvolution2"
  type: "Deconvolution"
  bottom: "Crop1"
  top: "Deconvolution2"
  convolution_param {
    num_output: 384
    bias_term: false
    pad: 0
    kernel_size: 5
    group: 1
    stride: 2
  }
}
layer {
  name: "ReLU9"
  type: "ReLU"
  bottom: "Deconvolution2"
  top: "Deconvolution2"
}
layer {
  name: "Crop2"
  type: "Crop"
  bottom: "Deconvolution2"
  bottom: "Convolution4"
  top: "Crop2"
  crop_param {
    axis: 2
    offset: 1
  }
}
layer {
  name: "Deconvolution3"
  type: "Deconvolution"
  bottom: "Crop2"
  top: "Deconvolution3"
  convolution_param {
    num_output: 256
    bias_term: false
    pad: 0
    kernel_size: 5
    group: 1
    stride: 2
  }
}
layer {
  name: "ReLU10"
  type: "ReLU"
  bottom: "Deconvolution3"
  top: "Deconvolution3"
}
layer {
  name: "Crop3"
  type: "Crop"
  bottom: "Deconvolution3"
  bottom: "Convolution3"
  top: "Crop3"
  crop_param {
    axis: 2
    offset: 1
  }
}
layer {
  name: "Deconvolution4"
  type: "Deconvolution"
  bottom: "Crop3"
  top: "Deconvolution4"
  convolution_param {
    num_output: 128
    bias_term: false
    pad: 0
    kernel_size: 5
    group: 1
    stride: 2
  }
}
layer {
  name: "ReLU11"
  type: "ReLU"
  bottom: "Deconvolution4"
  top: "Deconvolution4"
}
layer {
  name: "Crop4"
  type: "Crop"
  bottom: "Deconvolution4"
  bottom: "Convolution2"
  top: "Crop4"
  crop_param {
    axis: 2
    offset: 1
  }
}
layer {
  name: "Deconvolution5"
  type: "Deconvolution"
  bottom: "Crop4"
  top: "Deconvolution5"
  convolution_param {
    num_output: 64
    bias_term: false
    pad: 0
    kernel_size: 5
    group: 1
    stride: 2
  }
}
layer {
  name: "ReLU12"
  type: "ReLU"
  bottom: "Deconvolution5"
  top: "Deconvolution5"
}
layer {
  name: "Crop5"
  type: "Crop"
  bottom: "Deconvolution5"
  bottom: "Convolution1"
  top: "Crop5"
  crop_param {
    axis: 2
    offset: 1
  }
}
layer {
  name: "Deconvolution6"
  type: "Deconvolution"
  bottom: "Crop5"
  top: "Deconvolution6"
  convolution_param {
    num_output: 16
    bias_term: false
    pad: 0
    kernel_size: 5
    group: 1
    stride: 2
  }
}
layer {
  name: "ReLU13"
  type: "ReLU"
  bottom: "Deconvolution6"
  top: "Deconvolution6"
}
layer {
  name: "Crop6"
  type: "Crop"
  bottom: "Deconvolution6"
  bottom: "DummyData1"
  top: "Crop6"
  crop_param {
    axis: 2
    offset: 1
  }
}
layer {
  name: "EuclideanLoss2"
  type: "EuclideanLoss"
  bottom: "Crop6"
  bottom: "DummyData1"
  top: "EuclideanLoss2"
}
layer {
  name: "Eltwise1"
  type: "Eltwise"
  bottom: "EuclideanLoss1"
  bottom: "EuclideanLoss2"
  top: "Eltwise1"
  eltwise_param {
    operation: SUM
  }
}
I1206 18:07:33.277308 18765 layer_factory.hpp:77] Creating layer DummyData1
I1206 18:07:33.277359 18765 net.cpp:100] Creating Layer DummyData1
I1206 18:07:33.277392 18765 net.cpp:408] DummyData1 -> DummyData1
I1206 18:07:33.277478 18765 net.cpp:150] Setting up DummyData1
I1206 18:07:33.277510 18765 net.cpp:157] Top shape: 1 16 1152 1152 (21233664)
I1206 18:07:33.277525 18765 net.cpp:165] Memory required for data: 84934656
I1206 18:07:33.277542 18765 layer_factory.hpp:77] Creating layer DummyData1_DummyData1_0_split
I1206 18:07:33.277564 18765 net.cpp:100] Creating Layer DummyData1_DummyData1_0_split
I1206 18:07:33.277580 18765 net.cpp:434] DummyData1_DummyData1_0_split <- DummyData1
I1206 18:07:33.277611 18765 net.cpp:408] DummyData1_DummyData1_0_split -> DummyData1_DummyData1_0_split_0
I1206 18:07:33.277632 18765 net.cpp:408] DummyData1_DummyData1_0_split -> DummyData1_DummyData1_0_split_1
I1206 18:07:33.277657 18765 net.cpp:408] DummyData1_DummyData1_0_split -> DummyData1_DummyData1_0_split_2
I1206 18:07:33.277683 18765 net.cpp:150] Setting up DummyData1_DummyData1_0_split
I1206 18:07:33.277703 18765 net.cpp:157] Top shape: 1 16 1152 1152 (21233664)
I1206 18:07:33.277717 18765 net.cpp:157] Top shape: 1 16 1152 1152 (21233664)
I1206 18:07:33.277731 18765 net.cpp:157] Top shape: 1 16 1152 1152 (21233664)
I1206 18:07:33.277743 18765 net.cpp:165] Memory required for data: 339738624
I1206 18:07:33.277761 18765 layer_factory.hpp:77] Creating layer Convolution1
I1206 18:07:33.277788 18765 net.cpp:100] Creating Layer Convolution1
I1206 18:07:33.277806 18765 net.cpp:434] Convolution1 <- DummyData1_DummyData1_0_split_0
I1206 18:07:33.277830 18765 net.cpp:408] Convolution1 -> Convolution1
I1206 18:07:33.280515 18765 net.cpp:150] Setting up Convolution1
I1206 18:07:33.280560 18765 net.cpp:157] Top shape: 1 64 576 576 (21233664)
I1206 18:07:33.280575 18765 net.cpp:165] Memory required for data: 424673280
I1206 18:07:33.280613 18765 layer_factory.hpp:77] Creating layer ReLU1
I1206 18:07:33.280638 18765 net.cpp:100] Creating Layer ReLU1
I1206 18:07:33.280654 18765 net.cpp:434] ReLU1 <- Convolution1
I1206 18:07:33.280673 18765 net.cpp:395] ReLU1 -> Convolution1 (in-place)
I1206 18:07:33.280697 18765 net.cpp:150] Setting up ReLU1
I1206 18:07:33.280715 18765 net.cpp:157] Top shape: 1 64 576 576 (21233664)
I1206 18:07:33.280727 18765 net.cpp:165] Memory required for data: 509607936
I1206 18:07:33.280740 18765 layer_factory.hpp:77] Creating layer Convolution1_ReLU1_0_split
I1206 18:07:33.280757 18765 net.cpp:100] Creating Layer Convolution1_ReLU1_0_split
I1206 18:07:33.280771 18765 net.cpp:434] Convolution1_ReLU1_0_split <- Convolution1
I1206 18:07:33.280789 18765 net.cpp:408] Convolution1_ReLU1_0_split -> Convolution1_ReLU1_0_split_0
I1206 18:07:33.280810 18765 net.cpp:408] Convolution1_ReLU1_0_split -> Convolution1_ReLU1_0_split_1
I1206 18:07:33.280830 18765 net.cpp:150] Setting up Convolution1_ReLU1_0_split
I1206 18:07:33.280846 18765 net.cpp:157] Top shape: 1 64 576 576 (21233664)
I1206 18:07:33.280860 18765 net.cpp:157] Top shape: 1 64 576 576 (21233664)
I1206 18:07:33.280872 18765 net.cpp:165] Memory required for data: 679477248
I1206 18:07:33.280884 18765 layer_factory.hpp:77] Creating layer Convolution2
I1206 18:07:33.280906 18765 net.cpp:100] Creating Layer Convolution2
I1206 18:07:33.280922 18765 net.cpp:434] Convolution2 <- Convolution1_ReLU1_0_split_0
I1206 18:07:33.280939 18765 net.cpp:408] Convolution2 -> Convolution2
I1206 18:07:33.285274 18765 net.cpp:150] Setting up Convolution2
I1206 18:07:33.285306 18765 net.cpp:157] Top shape: 1 128 288 288 (10616832)
I1206 18:07:33.285320 18765 net.cpp:165] Memory required for data: 721944576
I1206 18:07:33.285341 18765 layer_factory.hpp:77] Creating layer ReLU2
I1206 18:07:33.285368 18765 net.cpp:100] Creating Layer ReLU2
I1206 18:07:33.285384 18765 net.cpp:434] ReLU2 <- Convolution2
I1206 18:07:33.285400 18765 net.cpp:395] ReLU2 -> Convolution2 (in-place)
I1206 18:07:33.285418 18765 net.cpp:150] Setting up ReLU2
I1206 18:07:33.285434 18765 net.cpp:157] Top shape: 1 128 288 288 (10616832)
I1206 18:07:33.285445 18765 net.cpp:165] Memory required for data: 764411904
I1206 18:07:33.285459 18765 layer_factory.hpp:77] Creating layer Convolution2_ReLU2_0_split
I1206 18:07:33.285472 18765 net.cpp:100] Creating Layer Convolution2_ReLU2_0_split
I1206 18:07:33.285490 18765 net.cpp:434] Convolution2_ReLU2_0_split <- Convolution2
I1206 18:07:33.285506 18765 net.cpp:408] Convolution2_ReLU2_0_split -> Convolution2_ReLU2_0_split_0
I1206 18:07:33.285528 18765 net.cpp:408] Convolution2_ReLU2_0_split -> Convolution2_ReLU2_0_split_1
I1206 18:07:33.285549 18765 net.cpp:150] Setting up Convolution2_ReLU2_0_split
I1206 18:07:33.285567 18765 net.cpp:157] Top shape: 1 128 288 288 (10616832)
I1206 18:07:33.285584 18765 net.cpp:157] Top shape: 1 128 288 288 (10616832)
I1206 18:07:33.285596 18765 net.cpp:165] Memory required for data: 849346560
I1206 18:07:33.285609 18765 layer_factory.hpp:77] Creating layer Convolution3
I1206 18:07:33.285632 18765 net.cpp:100] Creating Layer Convolution3
I1206 18:07:33.285650 18765 net.cpp:434] Convolution3 <- Convolution2_ReLU2_0_split_0
I1206 18:07:33.285666 18765 net.cpp:408] Convolution3 -> Convolution3
I1206 18:07:33.301573 18765 net.cpp:150] Setting up Convolution3
I1206 18:07:33.301609 18765 net.cpp:157] Top shape: 1 256 144 144 (5308416)
I1206 18:07:33.301622 18765 net.cpp:165] Memory required for data: 870580224
I1206 18:07:33.301645 18765 layer_factory.hpp:77] Creating layer ReLU3
I1206 18:07:33.301663 18765 net.cpp:100] Creating Layer ReLU3
I1206 18:07:33.301676 18765 net.cpp:434] ReLU3 <- Convolution3
I1206 18:07:33.301690 18765 net.cpp:395] ReLU3 -> Convolution3 (in-place)
I1206 18:07:33.301714 18765 net.cpp:150] Setting up ReLU3
I1206 18:07:33.301728 18765 net.cpp:157] Top shape: 1 256 144 144 (5308416)
I1206 18:07:33.301739 18765 net.cpp:165] Memory required for data: 891813888
I1206 18:07:33.301750 18765 layer_factory.hpp:77] Creating layer Convolution3_ReLU3_0_split
I1206 18:07:33.301769 18765 net.cpp:100] Creating Layer Convolution3_ReLU3_0_split
I1206 18:07:33.301780 18765 net.cpp:434] Convolution3_ReLU3_0_split <- Convolution3
I1206 18:07:33.301797 18765 net.cpp:408] Convolution3_ReLU3_0_split -> Convolution3_ReLU3_0_split_0
I1206 18:07:33.301815 18765 net.cpp:408] Convolution3_ReLU3_0_split -> Convolution3_ReLU3_0_split_1
I1206 18:07:33.301832 18765 net.cpp:150] Setting up Convolution3_ReLU3_0_split
I1206 18:07:33.301847 18765 net.cpp:157] Top shape: 1 256 144 144 (5308416)
I1206 18:07:33.301859 18765 net.cpp:157] Top shape: 1 256 144 144 (5308416)
I1206 18:07:33.301875 18765 net.cpp:165] Memory required for data: 934281216
I1206 18:07:33.301887 18765 layer_factory.hpp:77] Creating layer Convolution4
I1206 18:07:33.301905 18765 net.cpp:100] Creating Layer Convolution4
I1206 18:07:33.301924 18765 net.cpp:434] Convolution4 <- Convolution3_ReLU3_0_split_0
I1206 18:07:33.301944 18765 net.cpp:408] Convolution4 -> Convolution4
I1206 18:07:33.342509 18765 net.cpp:150] Setting up Convolution4
I1206 18:07:33.342545 18765 net.cpp:157] Top shape: 1 384 72 72 (1990656)
I1206 18:07:33.342555 18765 net.cpp:165] Memory required for data: 942243840
I1206 18:07:33.342571 18765 layer_factory.hpp:77] Creating layer ReLU4
I1206 18:07:33.342586 18765 net.cpp:100] Creating Layer ReLU4
I1206 18:07:33.342597 18765 net.cpp:434] ReLU4 <- Convolution4
I1206 18:07:33.342609 18765 net.cpp:395] ReLU4 -> Convolution4 (in-place)
I1206 18:07:33.342623 18765 net.cpp:150] Setting up ReLU4
I1206 18:07:33.342635 18765 net.cpp:157] Top shape: 1 384 72 72 (1990656)
I1206 18:07:33.342645 18765 net.cpp:165] Memory required for data: 950206464
I1206 18:07:33.342654 18765 layer_factory.hpp:77] Creating layer Convolution4_ReLU4_0_split
I1206 18:07:33.342666 18765 net.cpp:100] Creating Layer Convolution4_ReLU4_0_split
I1206 18:07:33.342676 18765 net.cpp:434] Convolution4_ReLU4_0_split <- Convolution4
I1206 18:07:33.342689 18765 net.cpp:408] Convolution4_ReLU4_0_split -> Convolution4_ReLU4_0_split_0
I1206 18:07:33.342702 18765 net.cpp:408] Convolution4_ReLU4_0_split -> Convolution4_ReLU4_0_split_1
I1206 18:07:33.342717 18765 net.cpp:150] Setting up Convolution4_ReLU4_0_split
I1206 18:07:33.342730 18765 net.cpp:157] Top shape: 1 384 72 72 (1990656)
I1206 18:07:33.342741 18765 net.cpp:157] Top shape: 1 384 72 72 (1990656)
I1206 18:07:33.342751 18765 net.cpp:165] Memory required for data: 966131712
I1206 18:07:33.342761 18765 layer_factory.hpp:77] Creating layer Convolution5
I1206 18:07:33.342779 18765 net.cpp:100] Creating Layer Convolution5
I1206 18:07:33.342792 18765 net.cpp:434] Convolution5 <- Convolution4_ReLU4_0_split_0
I1206 18:07:33.342805 18765 net.cpp:408] Convolution5 -> Convolution5
I1206 18:07:33.409289 18765 net.cpp:150] Setting up Convolution5
I1206 18:07:33.409339 18765 net.cpp:157] Top shape: 1 512 36 36 (663552)
I1206 18:07:33.409350 18765 net.cpp:165] Memory required for data: 968785920
I1206 18:07:33.409366 18765 layer_factory.hpp:77] Creating layer ReLU5
I1206 18:07:33.409381 18765 net.cpp:100] Creating Layer ReLU5
I1206 18:07:33.409391 18765 net.cpp:434] ReLU5 <- Convolution5
I1206 18:07:33.409401 18765 net.cpp:395] ReLU5 -> Convolution5 (in-place)
I1206 18:07:33.409415 18765 net.cpp:150] Setting up ReLU5
I1206 18:07:33.409425 18765 net.cpp:157] Top shape: 1 512 36 36 (663552)
I1206 18:07:33.409432 18765 net.cpp:165] Memory required for data: 971440128
I1206 18:07:33.409440 18765 layer_factory.hpp:77] Creating layer Convolution5_ReLU5_0_split
I1206 18:07:33.409454 18765 net.cpp:100] Creating Layer Convolution5_ReLU5_0_split
I1206 18:07:33.409464 18765 net.cpp:434] Convolution5_ReLU5_0_split <- Convolution5
I1206 18:07:33.409474 18765 net.cpp:408] Convolution5_ReLU5_0_split -> Convolution5_ReLU5_0_split_0
I1206 18:07:33.409487 18765 net.cpp:408] Convolution5_ReLU5_0_split -> Convolution5_ReLU5_0_split_1
I1206 18:07:33.409502 18765 net.cpp:150] Setting up Convolution5_ReLU5_0_split
I1206 18:07:33.409512 18765 net.cpp:157] Top shape: 1 512 36 36 (663552)
I1206 18:07:33.409521 18765 net.cpp:157] Top shape: 1 512 36 36 (663552)
I1206 18:07:33.409528 18765 net.cpp:165] Memory required for data: 976748544
I1206 18:07:33.409536 18765 layer_factory.hpp:77] Creating layer Convolution6
I1206 18:07:33.409548 18765 net.cpp:100] Creating Layer Convolution6
I1206 18:07:33.409557 18765 net.cpp:434] Convolution6 <- Convolution5_ReLU5_0_split_0
I1206 18:07:33.409570 18765 net.cpp:408] Convolution6 -> Convolution6
I1206 18:07:33.500548 18765 net.cpp:150] Setting up Convolution6
I1206 18:07:33.500625 18765 net.cpp:157] Top shape: 1 640 18 18 (207360)
I1206 18:07:33.500633 18765 net.cpp:165] Memory required for data: 977577984
I1206 18:07:33.500645 18765 layer_factory.hpp:77] Creating layer ReLU6
I1206 18:07:33.500674 18765 net.cpp:100] Creating Layer ReLU6
I1206 18:07:33.500684 18765 net.cpp:434] ReLU6 <- Convolution6
I1206 18:07:33.500694 18765 net.cpp:395] ReLU6 -> Convolution6 (in-place)
I1206 18:07:33.500707 18765 net.cpp:150] Setting up ReLU6
I1206 18:07:33.500726 18765 net.cpp:157] Top shape: 1 640 18 18 (207360)
I1206 18:07:33.500732 18765 net.cpp:165] Memory required for data: 978407424
I1206 18:07:33.500740 18765 layer_factory.hpp:77] Creating layer Convolution6_ReLU6_0_split
I1206 18:07:33.500747 18765 net.cpp:100] Creating Layer Convolution6_ReLU6_0_split
I1206 18:07:33.500754 18765 net.cpp:434] Convolution6_ReLU6_0_split <- Convolution6
I1206 18:07:33.500763 18765 net.cpp:408] Convolution6_ReLU6_0_split -> Convolution6_ReLU6_0_split_0
I1206 18:07:33.500773 18765 net.cpp:408] Convolution6_ReLU6_0_split -> Convolution6_ReLU6_0_split_1
I1206 18:07:33.500794 18765 net.cpp:408] Convolution6_ReLU6_0_split -> Convolution6_ReLU6_0_split_2
I1206 18:07:33.500804 18765 net.cpp:408] Convolution6_ReLU6_0_split -> Convolution6_ReLU6_0_split_3
I1206 18:07:33.500818 18765 net.cpp:150] Setting up Convolution6_ReLU6_0_split
I1206 18:07:33.500826 18765 net.cpp:157] Top shape: 1 640 18 18 (207360)
I1206 18:07:33.500834 18765 net.cpp:157] Top shape: 1 640 18 18 (207360)
I1206 18:07:33.500841 18765 net.cpp:157] Top shape: 1 640 18 18 (207360)
I1206 18:07:33.500847 18765 net.cpp:157] Top shape: 1 640 18 18 (207360)
I1206 18:07:33.500854 18765 net.cpp:165] Memory required for data: 981725184
I1206 18:07:33.500860 18765 layer_factory.hpp:77] Creating layer Convolution7
I1206 18:07:33.500874 18765 net.cpp:100] Creating Layer Convolution7
I1206 18:07:33.500883 18765 net.cpp:434] Convolution7 <- Convolution6_ReLU6_0_split_0
I1206 18:07:33.500892 18765 net.cpp:408] Convolution7 -> Convolution7
I1206 18:07:33.501194 18765 net.cpp:150] Setting up Convolution7
I1206 18:07:33.501211 18765 net.cpp:157] Top shape: 1 4 18 18 (1296)
I1206 18:07:33.501219 18765 net.cpp:165] Memory required for data: 981730368
I1206 18:07:33.501229 18765 layer_factory.hpp:77] Creating layer ReLU7
I1206 18:07:33.501237 18765 net.cpp:100] Creating Layer ReLU7
I1206 18:07:33.501250 18765 net.cpp:434] ReLU7 <- Convolution7
I1206 18:07:33.501257 18765 net.cpp:395] ReLU7 -> Convolution7 (in-place)
I1206 18:07:33.501277 18765 net.cpp:150] Setting up ReLU7
I1206 18:07:33.501286 18765 net.cpp:157] Top shape: 1 4 18 18 (1296)
I1206 18:07:33.501292 18765 net.cpp:165] Memory required for data: 981735552
I1206 18:07:33.501298 18765 layer_factory.hpp:77] Creating layer Convolution8
I1206 18:07:33.501309 18765 net.cpp:100] Creating Layer Convolution8
I1206 18:07:33.501318 18765 net.cpp:434] Convolution8 <- Convolution6_ReLU6_0_split_1
I1206 18:07:33.501338 18765 net.cpp:408] Convolution8 -> Convolution8
I1206 18:07:33.501401 18765 net.cpp:150] Setting up Convolution8
I1206 18:07:33.501432 18765 net.cpp:157] Top shape: 1 4 18 18 (1296)
I1206 18:07:33.501441 18765 net.cpp:165] Memory required for data: 981740736
I1206 18:07:33.501451 18765 layer_factory.hpp:77] Creating layer Sigmoid1
I1206 18:07:33.501463 18765 net.cpp:100] Creating Layer Sigmoid1
I1206 18:07:33.501471 18765 net.cpp:434] Sigmoid1 <- Convolution8
I1206 18:07:33.501479 18765 net.cpp:408] Sigmoid1 -> Sigmoid1
I1206 18:07:33.501492 18765 net.cpp:150] Setting up Sigmoid1
I1206 18:07:33.501502 18765 net.cpp:157] Top shape: 1 4 18 18 (1296)
I1206 18:07:33.501507 18765 net.cpp:165] Memory required for data: 981745920
I1206 18:07:33.501513 18765 layer_factory.hpp:77] Creating layer Convolution9
I1206 18:07:33.501523 18765 net.cpp:100] Creating Layer Convolution9
I1206 18:07:33.501531 18765 net.cpp:434] Convolution9 <- Convolution6_ReLU6_0_split_2
I1206 18:07:33.501541 18765 net.cpp:408] Convolution9 -> Convolution9
I1206 18:07:33.501580 18765 net.cpp:150] Setting up Convolution9
I1206 18:07:33.501592 18765 net.cpp:157] Top shape: 1 2 18 18 (648)
I1206 18:07:33.501600 18765 net.cpp:165] Memory required for data: 981748512
I1206 18:07:33.501622 18765 layer_factory.hpp:77] Creating layer Sigmoid2
I1206 18:07:33.501632 18765 net.cpp:100] Creating Layer Sigmoid2
I1206 18:07:33.501639 18765 net.cpp:434] Sigmoid2 <- Convolution9
I1206 18:07:33.501651 18765 net.cpp:408] Sigmoid2 -> Sigmoid2
I1206 18:07:33.501662 18765 net.cpp:150] Setting up Sigmoid2
I1206 18:07:33.501669 18765 net.cpp:157] Top shape: 1 2 18 18 (648)
I1206 18:07:33.501675 18765 net.cpp:165] Memory required for data: 981751104
I1206 18:07:33.501682 18765 layer_factory.hpp:77] Creating layer Concat1
I1206 18:07:33.501695 18765 net.cpp:100] Creating Layer Concat1
I1206 18:07:33.501715 18765 net.cpp:434] Concat1 <- Convolution7
I1206 18:07:33.501723 18765 net.cpp:434] Concat1 <- Sigmoid1
I1206 18:07:33.501730 18765 net.cpp:434] Concat1 <- Sigmoid2
I1206 18:07:33.501740 18765 net.cpp:408] Concat1 -> Concat1
I1206 18:07:33.501756 18765 net.cpp:150] Setting up Concat1
I1206 18:07:33.501777 18765 net.cpp:157] Top shape: 1 10 18 18 (3240)
I1206 18:07:33.501783 18765 net.cpp:165] Memory required for data: 981764064
I1206 18:07:33.501790 18765 layer_factory.hpp:77] Creating layer DummyData2
I1206 18:07:33.501813 18765 net.cpp:100] Creating Layer DummyData2
I1206 18:07:33.501824 18765 net.cpp:408] DummyData2 -> DummyData2
I1206 18:07:33.501842 18765 net.cpp:150] Setting up DummyData2
I1206 18:07:33.501852 18765 net.cpp:157] Top shape: 1 4 18 18 (1296)
I1206 18:07:33.501857 18765 net.cpp:165] Memory required for data: 981769248
I1206 18:07:33.501863 18765 layer_factory.hpp:77] Creating layer DummyData3
I1206 18:07:33.501886 18765 net.cpp:100] Creating Layer DummyData3
I1206 18:07:33.501895 18765 net.cpp:408] DummyData3 -> DummyData3
I1206 18:07:33.501907 18765 net.cpp:150] Setting up DummyData3
I1206 18:07:33.501917 18765 net.cpp:157] Top shape: 1 4 18 18 (1296)
I1206 18:07:33.501924 18765 net.cpp:165] Memory required for data: 981774432
I1206 18:07:33.501929 18765 layer_factory.hpp:77] Creating layer DummyData4
I1206 18:07:33.501962 18765 net.cpp:100] Creating Layer DummyData4
I1206 18:07:33.501971 18765 net.cpp:408] DummyData4 -> DummyData4
I1206 18:07:33.501987 18765 net.cpp:150] Setting up DummyData4
I1206 18:07:33.501997 18765 net.cpp:157] Top shape: 1 2 18 18 (648)
I1206 18:07:33.502007 18765 net.cpp:165] Memory required for data: 981777024
I1206 18:07:33.502013 18765 layer_factory.hpp:77] Creating layer Concat2
I1206 18:07:33.502032 18765 net.cpp:100] Creating Layer Concat2
I1206 18:07:33.502039 18765 net.cpp:434] Concat2 <- DummyData2
I1206 18:07:33.502048 18765 net.cpp:434] Concat2 <- DummyData3
I1206 18:07:33.502054 18765 net.cpp:434] Concat2 <- DummyData4
I1206 18:07:33.502063 18765 net.cpp:408] Concat2 -> Concat2
I1206 18:07:33.502074 18765 net.cpp:150] Setting up Concat2
I1206 18:07:33.502095 18765 net.cpp:157] Top shape: 1 10 18 18 (3240)
I1206 18:07:33.502101 18765 net.cpp:165] Memory required for data: 981789984
I1206 18:07:33.502107 18765 layer_factory.hpp:77] Creating layer EuclideanLoss1
I1206 18:07:33.502118 18765 net.cpp:100] Creating Layer EuclideanLoss1
I1206 18:07:33.502125 18765 net.cpp:434] EuclideanLoss1 <- Concat1
I1206 18:07:33.502132 18765 net.cpp:434] EuclideanLoss1 <- Concat2
I1206 18:07:33.502140 18765 net.cpp:408] EuclideanLoss1 -> EuclideanLoss1
I1206 18:07:33.502162 18765 net.cpp:150] Setting up EuclideanLoss1
I1206 18:07:33.502172 18765 net.cpp:157] Top shape: (1)
I1206 18:07:33.502190 18765 net.cpp:160]     with loss weight 1
I1206 18:07:33.502220 18765 net.cpp:165] Memory required for data: 981789988
I1206 18:07:33.502228 18765 layer_factory.hpp:77] Creating layer Deconvolution1
I1206 18:07:33.502254 18765 net.cpp:100] Creating Layer Deconvolution1
I1206 18:07:33.502262 18765 net.cpp:434] Deconvolution1 <- Convolution6_ReLU6_0_split_3
I1206 18:07:33.502271 18765 net.cpp:408] Deconvolution1 -> Deconvolution1
I1206 18:07:33.525363 18765 net.cpp:150] Setting up Deconvolution1
I1206 18:07:33.525425 18765 net.cpp:157] Top shape: 1 512 39 39 (778752)
I1206 18:07:33.525432 18765 net.cpp:165] Memory required for data: 984904996
I1206 18:07:33.525444 18765 layer_factory.hpp:77] Creating layer ReLU8
I1206 18:07:33.525460 18765 net.cpp:100] Creating Layer ReLU8
I1206 18:07:33.525471 18765 net.cpp:434] ReLU8 <- Deconvolution1
I1206 18:07:33.525481 18765 net.cpp:395] ReLU8 -> Deconvolution1 (in-place)
I1206 18:07:33.525494 18765 net.cpp:150] Setting up ReLU8
I1206 18:07:33.525502 18765 net.cpp:157] Top shape: 1 512 39 39 (778752)
I1206 18:07:33.525509 18765 net.cpp:165] Memory required for data: 988020004
I1206 18:07:33.525516 18765 layer_factory.hpp:77] Creating layer Crop1
I1206 18:07:33.525529 18765 net.cpp:100] Creating Layer Crop1
I1206 18:07:33.525538 18765 net.cpp:434] Crop1 <- Deconvolution1
I1206 18:07:33.525545 18765 net.cpp:434] Crop1 <- Convolution5_ReLU5_0_split_1
I1206 18:07:33.525554 18765 net.cpp:408] Crop1 -> Crop1
I1206 18:07:33.525575 18765 net.cpp:150] Setting up Crop1
I1206 18:07:33.525585 18765 net.cpp:157] Top shape: 1 512 36 36 (663552)
I1206 18:07:33.525591 18765 net.cpp:165] Memory required for data: 990674212
I1206 18:07:33.525598 18765 layer_factory.hpp:77] Creating layer Deconvolution2
I1206 18:07:33.525609 18765 net.cpp:100] Creating Layer Deconvolution2
I1206 18:07:33.525619 18765 net.cpp:434] Deconvolution2 <- Crop1
I1206 18:07:33.525626 18765 net.cpp:408] Deconvolution2 -> Deconvolution2
I1206 18:07:33.537494 18765 net.cpp:150] Setting up Deconvolution2
I1206 18:07:33.537525 18765 net.cpp:157] Top shape: 1 384 75 75 (2160000)
I1206 18:07:33.537533 18765 net.cpp:165] Memory required for data: 999314212
I1206 18:07:33.537540 18765 layer_factory.hpp:77] Creating layer ReLU9
I1206 18:07:33.537555 18765 net.cpp:100] Creating Layer ReLU9
I1206 18:07:33.537564 18765 net.cpp:434] ReLU9 <- Deconvolution2
I1206 18:07:33.537573 18765 net.cpp:395] ReLU9 -> Deconvolution2 (in-place)
I1206 18:07:33.537583 18765 net.cpp:150] Setting up ReLU9
I1206 18:07:33.537591 18765 net.cpp:157] Top shape: 1 384 75 75 (2160000)
I1206 18:07:33.537597 18765 net.cpp:165] Memory required for data: 1007954212
I1206 18:07:33.537605 18765 layer_factory.hpp:77] Creating layer Crop2
I1206 18:07:33.537612 18765 net.cpp:100] Creating Layer Crop2
I1206 18:07:33.537619 18765 net.cpp:434] Crop2 <- Deconvolution2
I1206 18:07:33.537626 18765 net.cpp:434] Crop2 <- Convolution4_ReLU4_0_split_1
I1206 18:07:33.537638 18765 net.cpp:408] Crop2 -> Crop2
I1206 18:07:33.537650 18765 net.cpp:150] Setting up Crop2
I1206 18:07:33.537658 18765 net.cpp:157] Top shape: 1 384 72 72 (1990656)
I1206 18:07:33.537664 18765 net.cpp:165] Memory required for data: 1015916836
I1206 18:07:33.537670 18765 layer_factory.hpp:77] Creating layer Deconvolution3
I1206 18:07:33.537681 18765 net.cpp:100] Creating Layer Deconvolution3
I1206 18:07:33.537689 18765 net.cpp:434] Deconvolution3 <- Crop2
I1206 18:07:33.537698 18765 net.cpp:408] Deconvolution3 -> Deconvolution3
I1206 18:07:33.543437 18765 net.cpp:150] Setting up Deconvolution3
I1206 18:07:33.543457 18765 net.cpp:157] Top shape: 1 256 147 147 (5531904)
I1206 18:07:33.543463 18765 net.cpp:165] Memory required for data: 1038044452
I1206 18:07:33.543483 18765 layer_factory.hpp:77] Creating layer ReLU10
I1206 18:07:33.543493 18765 net.cpp:100] Creating Layer ReLU10
I1206 18:07:33.543499 18765 net.cpp:434] ReLU10 <- Deconvolution3
I1206 18:07:33.543507 18765 net.cpp:395] ReLU10 -> Deconvolution3 (in-place)
I1206 18:07:33.543526 18765 net.cpp:150] Setting up ReLU10
I1206 18:07:33.543534 18765 net.cpp:157] Top shape: 1 256 147 147 (5531904)
I1206 18:07:33.543551 18765 net.cpp:165] Memory required for data: 1060172068
I1206 18:07:33.543557 18765 layer_factory.hpp:77] Creating layer Crop3
I1206 18:07:33.543576 18765 net.cpp:100] Creating Layer Crop3
I1206 18:07:33.543592 18765 net.cpp:434] Crop3 <- Deconvolution3
I1206 18:07:33.543611 18765 net.cpp:434] Crop3 <- Convolution3_ReLU3_0_split_1
I1206 18:07:33.543618 18765 net.cpp:408] Crop3 -> Crop3
I1206 18:07:33.543629 18765 net.cpp:150] Setting up Crop3
I1206 18:07:33.543638 18765 net.cpp:157] Top shape: 1 256 144 144 (5308416)
I1206 18:07:33.543644 18765 net.cpp:165] Memory required for data: 1081405732
I1206 18:07:33.543650 18765 layer_factory.hpp:77] Creating layer Deconvolution4
I1206 18:07:33.543671 18765 net.cpp:100] Creating Layer Deconvolution4
I1206 18:07:33.543689 18765 net.cpp:434] Deconvolution4 <- Crop3
I1206 18:07:33.543697 18765 net.cpp:408] Deconvolution4 -> Deconvolution4
I1206 18:07:33.545760 18765 net.cpp:150] Setting up Deconvolution4
I1206 18:07:33.545783 18765 net.cpp:157] Top shape: 1 128 291 291 (10839168)
I1206 18:07:33.545791 18765 net.cpp:165] Memory required for data: 1124762404
I1206 18:07:33.545799 18765 layer_factory.hpp:77] Creating layer ReLU11
I1206 18:07:33.545809 18765 net.cpp:100] Creating Layer ReLU11
I1206 18:07:33.545817 18765 net.cpp:434] ReLU11 <- Deconvolution4
I1206 18:07:33.545825 18765 net.cpp:395] ReLU11 -> Deconvolution4 (in-place)
I1206 18:07:33.545835 18765 net.cpp:150] Setting up ReLU11
I1206 18:07:33.545842 18765 net.cpp:157] Top shape: 1 128 291 291 (10839168)
I1206 18:07:33.545848 18765 net.cpp:165] Memory required for data: 1168119076
I1206 18:07:33.545853 18765 layer_factory.hpp:77] Creating layer Crop4
I1206 18:07:33.545861 18765 net.cpp:100] Creating Layer Crop4
I1206 18:07:33.545868 18765 net.cpp:434] Crop4 <- Deconvolution4
I1206 18:07:33.545876 18765 net.cpp:434] Crop4 <- Convolution2_ReLU2_0_split_1
I1206 18:07:33.545884 18765 net.cpp:408] Crop4 -> Crop4
I1206 18:07:33.545894 18765 net.cpp:150] Setting up Crop4
I1206 18:07:33.545902 18765 net.cpp:157] Top shape: 1 128 288 288 (10616832)
I1206 18:07:33.545908 18765 net.cpp:165] Memory required for data: 1210586404
I1206 18:07:33.545913 18765 layer_factory.hpp:77] Creating layer Deconvolution5
I1206 18:07:33.545924 18765 net.cpp:100] Creating Layer Deconvolution5
I1206 18:07:33.545933 18765 net.cpp:434] Deconvolution5 <- Crop4
I1206 18:07:33.545940 18765 net.cpp:408] Deconvolution5 -> Deconvolution5
I1206 18:07:33.546337 18765 net.cpp:150] Setting up Deconvolution5
I1206 18:07:33.546351 18765 net.cpp:157] Top shape: 1 64 579 579 (21455424)
I1206 18:07:33.546357 18765 net.cpp:165] Memory required for data: 1296408100
I1206 18:07:33.546365 18765 layer_factory.hpp:77] Creating layer ReLU12
I1206 18:07:33.546375 18765 net.cpp:100] Creating Layer ReLU12
I1206 18:07:33.546381 18765 net.cpp:434] ReLU12 <- Deconvolution5
I1206 18:07:33.546391 18765 net.cpp:395] ReLU12 -> Deconvolution5 (in-place)
I1206 18:07:33.546401 18765 net.cpp:150] Setting up ReLU12
I1206 18:07:33.546409 18765 net.cpp:157] Top shape: 1 64 579 579 (21455424)
I1206 18:07:33.546416 18765 net.cpp:165] Memory required for data: 1382229796
I1206 18:07:33.546422 18765 layer_factory.hpp:77] Creating layer Crop5
I1206 18:07:33.546429 18765 net.cpp:100] Creating Layer Crop5
I1206 18:07:33.546435 18765 net.cpp:434] Crop5 <- Deconvolution5
I1206 18:07:33.546442 18765 net.cpp:434] Crop5 <- Convolution1_ReLU1_0_split_1
I1206 18:07:33.546449 18765 net.cpp:408] Crop5 -> Crop5
I1206 18:07:33.546459 18765 net.cpp:150] Setting up Crop5
I1206 18:07:33.546468 18765 net.cpp:157] Top shape: 1 64 576 576 (21233664)
I1206 18:07:33.546473 18765 net.cpp:165] Memory required for data: 1467164452
I1206 18:07:33.546479 18765 layer_factory.hpp:77] Creating layer Deconvolution6
I1206 18:07:33.546489 18765 net.cpp:100] Creating Layer Deconvolution6
I1206 18:07:33.546497 18765 net.cpp:434] Deconvolution6 <- Crop5
I1206 18:07:33.546505 18765 net.cpp:408] Deconvolution6 -> Deconvolution6
I1206 18:07:33.546560 18765 net.cpp:150] Setting up Deconvolution6
I1206 18:07:33.546576 18765 net.cpp:157] Top shape: 1 16 1155 1155 (21344400)
I1206 18:07:33.546582 18765 net.cpp:165] Memory required for data: 1552542052
I1206 18:07:33.546591 18765 layer_factory.hpp:77] Creating layer ReLU13
I1206 18:07:33.546598 18765 net.cpp:100] Creating Layer ReLU13
I1206 18:07:33.546605 18765 net.cpp:434] ReLU13 <- Deconvolution6
I1206 18:07:33.546614 18765 net.cpp:395] ReLU13 -> Deconvolution6 (in-place)
I1206 18:07:33.546624 18765 net.cpp:150] Setting up ReLU13
I1206 18:07:33.546633 18765 net.cpp:157] Top shape: 1 16 1155 1155 (21344400)
I1206 18:07:33.546638 18765 net.cpp:165] Memory required for data: 1637919652
I1206 18:07:33.546643 18765 layer_factory.hpp:77] Creating layer Crop6
I1206 18:07:33.546651 18765 net.cpp:100] Creating Layer Crop6
I1206 18:07:33.546658 18765 net.cpp:434] Crop6 <- Deconvolution6
I1206 18:07:33.546664 18765 net.cpp:434] Crop6 <- DummyData1_DummyData1_0_split_1
I1206 18:07:33.546672 18765 net.cpp:408] Crop6 -> Crop6
I1206 18:07:33.546682 18765 net.cpp:150] Setting up Crop6
I1206 18:07:33.546690 18765 net.cpp:157] Top shape: 1 16 1152 1152 (21233664)
I1206 18:07:33.546696 18765 net.cpp:165] Memory required for data: 1722854308
I1206 18:07:33.546702 18765 layer_factory.hpp:77] Creating layer EuclideanLoss2
I1206 18:07:33.546712 18765 net.cpp:100] Creating Layer EuclideanLoss2
I1206 18:07:33.546720 18765 net.cpp:434] EuclideanLoss2 <- Crop6
I1206 18:07:33.546727 18765 net.cpp:434] EuclideanLoss2 <- DummyData1_DummyData1_0_split_2
…
